trained_model.pth (torch, 48495 bytes, 7 tensors)

fc.0.weight f4 [64, 37]
000000 f7 39 36 be 0b be 76 bd 7e f5 86 3e 78 25 2b bb
       -0.1779555 -0.060239833 0.2635917 -0.0026114862
000010 92 c6 90 be 7b cb 13 be db c1 62 be 4e c6 18 3e
       -0.28276497 -0.1443309 -0.22144262 0.14919397
000020 b6 cc 3f 3d e1 1b 8f 3e 6e 48 a1 bd ec 89 5f 3e
       0.046826087 0.27950957 -0.07875143 0.21829957
000030 a0 ac de bd 40 41 eb be e4 27 ad be 6b 72 94 3e
       -0.10872769 -0.4594822 -0.33819497 0.28993544
000040 cb 27 b3 be e8 d6 9d be 5a 98 1c bf 69 eb 99 bf
       -0.34991297 -0.30828023 -0.6116997 -1.2024966
000050 10 d4 60 3e e8 4b dd be 78 04 1b 3e a4 9f 69 bd
       0.21955895 -0.43221974 0.15138423 -0.05703701
000060 12 d5 e4 bd 09 fe 8f 3d da be a9 bd a8 f6 9a 3d
       -0.111734524 0.07030875 -0.08288355 0.07566577
000070 8a 02 26 3e 90 da 29 3e 66 91 5b 3e 02 35 0a 3b
       0.16211906 0.16587281 0.21442184 0.0021088724
000080 43 0f a0 be 81 0b 86 3c 4e ec cc 3e 82 ec 24 3d
       -0.31261644 0.016362907 0.40024036 0.040264614
000090 9f 78 5b bd b2 3a 3c 3e cb f5 f9 3c 6a ff 70 bd
       -0.05358183 0.18381765 0.030512711 -0.05883733
0000a0 dc 97 5a 3d 4e 24 4d be bf a0 f2 bd ac 19 ae 3c
       0.05336748 -0.2003338 -0.11847066 0.021252476
0000b0 67 ee 4f bd da 75 5c 3e c3 f2 21 3f 86 1b 3c bd
       -0.050764468 0.21529332 0.6326105 -0.045924686
0000c0 1d 8b 70 be 8f ed e2 3d 5c ed 6c 3e 03 74 a1 3e
       -0.23490568 0.11080467 0.2313742 0.31533822
0000d0 d6 ae 08 3e 76 f5 48 bc 1c 13 0a 3e 1c e5 7b 3e
       0.13347945 -0.012265554 0.13483852 0.24599117
0000e0 9e 6a 7a 3e 40 82 df 3c 88 83 dd 3d 56 15 23 bd
       0.24454734 0.027283788 0.10816103 -0.03981527
0000f0 61 79 32 3b 60 a3 5f be 70 fa 96 3d b5 9a 7d bd
       0.0027232992 -0.21839666 0.07371986 -0.06191512
000100 0d 37 22 bd f7 17 e9 be 0f 77 1d be 73 54 c7 bc
       -0.03960328 -0.45526096 -0.15377448 -0.02433226
000110 bf 67 83 bd 04 64 dc 3e 4d 14 a2 bd e7 be 67 3e
       -0.06416272 0.43045056 -0.07914028 0.22631417
000120 4a a2 70 bc 37 05 e4 bc c5 56 22 3c f9 71 73 3d
       -0.01468713 -0.027834518 0.009908383 0.059434865
000130 98 0d 89 3d 5f 48 8b bc 84 68 19 3d 65 f9 d4 bd
       0.06692046 -0.017002283 0.03745319 -0.10399131
000140 82 25 45 3e 55 e3 39 3e af 06 15 3e ee 0e d7 b9
       0.1925259 0.18153127 0.14553331 -0.0004101912
000150 62 26 ce 3d f3 df 1f 3e 14 9a 25 3e 4f 30 27 3e
       0.10065915 0.15612774 0.16172057 0.16327022
000160 0f d1 bb bd 09 53 e6 3e 0d 7a 6b be 23 ba d6 be
       -0.09170734 0.44985226 -0.22995777 -0.41938886
000170 69 39 f3 be 2f d9 24 c0 4a 02 cf 3c 4c 47 1f 3d
       -0.47504738 -2.5757558 0.025269646 0.038886353
000180 e6 7e f9 3d 02 17 82 3d 93 ed 0a bc cf 79 ab bd
       0.12182407 0.06352045 -0.008479494 -0.083728425
000190 18 29 95 3d b9 f7 2a 3e 69 b3 e2 bc d5 0a 9c 3c
       0.07283229 0.16696061 -0.02767344 0.019048134
0001a0 62 ec cd bd 4e 5a 44 3e 62 c3 25 3e 45 ce 95 3d
       -0.10054852 0.19175074 0.16187814 0.073147334
0001b0 4a 4c 50 3a 4f 7e 55 3c 9e 2f 0f bb f8 84 51 bc
       0.0007945938 0.013030603 -0.002184845 -0.01278805
0001c0 99 28 dd 3d 14 df db 3d 34 e7 ef bc 44 32 da 3d
       0.10798759 0.10735908 -0.02928505 0.10654119
0001d0 f8 cb f6 3c e8 e8 bc bc 5e d8 32 3c 91 cd 11 be
       0.030126557 -0.023060277 0.010915844 -0.14238574
0001e0 f2 dc a1 bd 1f be 69 be 6b 3c 53 3d 29 25 03 3e
       -0.0790347 -0.22826432 0.05157129 0.12807144
0001f0 83 52 9e 3d 69 21 8f 3d e7 17 42 be 48 42 df bc
       0.077305816 0.06988794 -0.1895443 -0.027253285
000200 b9 ea 4e 3c f6 0c 1a 3d 35 c7 78 3e 75 ad 7c bf
       0.012629204 0.037610017 0.24294741 -0.98702174
000210 90 df 8a 3e 6b 09 a5 3e 2b aa 42 3d 91 63 73 bf
       0.2712369 0.32233748 0.047525566 -0.950738
000220 c6 2e 6c be 50 3b 04 be 2e dc b9 3c 83 8e 05 3d
       -0.23064718 -0.12913251 0.022687998 0.032606613
000230 83 a9 1e 3e 87 f1 56 be 03 89 bb 3d b3 3d 86 3c
       0.15494351 -0.20990573 0.09156992 0.016386842
000240 89 b6 da 3d 48 d1 b1 3e aa 82 bc bc 9e a0 4a bc
       0.10679347 0.3472998 -0.023011524 -0.012367396
000250 c9 b5 6f be da c2 b9 3e be 3b ca be b8 e8 a1 be
       -0.2340919 0.36281472 -0.39498705 -0.31622863
000260 27 ca be 3e 3c e8 4b 3e 7a 15 bd bd 8d 33 d1 bd
       0.37263605 0.19912809 -0.09232612 -0.10214911
000270 8b ac c6 be 12 03 a2 be 06 3e 00 3e 1c 84 2b be
       -0.38803515 -0.31642967 0.1252366 -0.16749614
000280 ce f9 cc 3c 4c 89 5f be ae f9 f2 3c 73 4a 92 bd
       0.02502146 -0.21829718 0.029660072 -0.07143106
000290 40 1a 3f be 91 fd bd be 84 c4 a5 3d 91 8c ba bd
       -0.18662357 -0.37107518 0.08094123 -0.09108842
0002a0 06 f1 de 3e 51 2f 09 be d3 f2 38 be 3b 61 e3 be
       0.4354326 -0.13396956 -0.1806138 -0.44410118
0002b0 7c ae b6 bf 4d 32 36 be b0 5e 00 3e c7 b3 a5 3d
       -1.4271998 -0.17792626 0.1253612 0.080909304
0002c0 b0 c3 09 bf 1d 75 95 bc d3 2e 79 be bc 5c b1 3e
       -0.5381422 -0.01824432 -0.24334268 0.34641063
0002d0 3e 55 4c be a7 00 e0 bd 11 e9 ba be a9 0d 70 3d
       -0.19954392 -0.109376244 -0.3650594 0.058606777
0002e0 ed c8 a1 bd 2a 39 58 3d d2 3c 90 bd 70 4f a2 3d
       -0.07899652 0.05278889 -0.070428506 0.07925308
0002f0 56 3b 28 be 85 fc 0f be b6 92 4b 3e bc 3a 3f bf
       -0.16428885 -0.14061172 0.19880185 -0.74698997
000300 b5 8f 17 3e 22 a5 e8 be 78 bf b0 bf 85 dd 26 3e
       0.14800914 -0.45438486 -1.3808432 0.1629544
000310 75 75 85 bd 62 11 10 3e 0b c7 e5 3d cc 98 82 3d
       -0.06516544 0.14069131 0.11219605 0.063768
000320 c9 7d 2a 3e 34 db a6 bd a4 7b 31 3e 4b 69 db 3c
       0.16649546 -0.081472784 0.17332321 0.026783606
000330 67 f8 a2 be 24 c6 8f 3d 11 48 40 bc 35 ed da 3d
       -0.3183014 0.07020214 -0.011735932 0.10689775
000340 41 85 f4 bd 70 04 a7 3b 57 7b d1 bd d2 f0 38 3e
       -0.11939479 0.0050969645 -0.10228603 0.18060616
000350 02 1f 0b 3e e0 c1 05 3e 4b b7 56 be 1a 34 34 bd
       0.13586047 0.13062239 -0.20968358 -0.043995
000360 2e d7 36 3c 2c 2b 46 3e 0c 05 bf 3e f9 c9 15 be
       0.011159701 0.19352406 0.37308538 -0.14627828
000370 5f 2c ef bc 85 fc a5 3c be de 3f 3b a3 39 8a bd
       -0.029195962 0.020262012 0.0029277052 -0.067492746
000380 8e 11 20 3d 74 71 c1 3d 50 7e 6b 3e aa e0 3b 3e
       0.03907924 0.094454676 0.22997403 0.18347421
000390 dc b3 5f bd bb c9 d1 3d 24 d6 2c 3e c0 30 7d 3d
       -0.054614887 0.10243555 0.16878563 0.06181407
0003a0 6e 05 aa 3d 66 18 b6 3d d4 62 33 3d c2 15 6d 3c
       0.08301817 0.088913724 0.04379542 0.0144705195
0003b0 7b e7 fb 3d 1f d6 c1 3e 26 db 1c bf 5a e0 27 bf
       0.12300011 0.37858674 -0.61271894 -0.6557671
0003c0 87 55 27 bf 9c 21 04 c0 50 1b 79 3d 4f 47 18 3d
       -0.6536488 -2.0645514 0.060817063 0.03717738
0003d0 a5 38 d8 3d 66 56 83 3e fb 1c c1 3c 37 08 87 bc
       0.10557679 0.25651854 0.02357339 -0.01648341
0003e0 1e 03 cc bd f7 0c 24 be e5 87 c0 3d 6a 30 bb 3d
       -0.09961532 -0.1602057 0.0940092 0.091400936
0003f0 cb c9 37 3d ad 04 28 bd ad 32 6c 3b f8 f5 f6 bc
       0.04487018 -0.041020084 0.0036040947 -0.030146584

fc.0.bias f4 [64]
000000 74 1b 8c 3c 07 91 2d be 85 23 fd 3c 0b 7d f5 3d
       0.017102934 -0.16949855 0.030900726 0.11986741
000010 bb b1 0b be ac 7b 09 3d 60 6d d2 bd 56 8e 8e bd
       -0.13642018 0.03356521 -0.10274768 -0.06960742
000020 a5 38 e3 bd f0 03 95 bd f7 10 b9 3d 88 d1 50 bd
       -0.110947885 -0.07276142 0.09036439 -0.050981075
000030 56 60 f6 bc f3 c1 98 bc 92 72 6c 3e c3 6f d9 bd
       -0.030075233 -0.01864717 0.2309058 -0.1061702
000040 ac a0 e6 bd b3 dd 03 3c 8e 17 c5 3b 06 d9 00 bd
       -0.112611145 0.008048463 0.006014771 -0.03145697
000050 7b 92 d7 3c 58 6f f8 bd e1 b1 97 3d 01 19 4d 3c
       0.026314965 -0.12130612 0.074069746 0.012518168
000060 d3 3c 94 3e 53 d9 f3 bc 9c aa 72 3d 14 68 ec bd
       0.28952655 -0.029766714 0.059244737 -0.11543289
000070 59 9c 1b 3e 9e ac 4b be 0b a1 09 3e eb d6 f7 bd
       0.1519636 -0.19890067 0.1344034 -0.12101539
000080 ac 14 3b be 4d d5 37 bd 42 62 0b 3e 33 1b 4f bd
       -0.18269604 -0.044881154 0.13611701 -0.05056305
000090 a6 c6 57 be ff 46 d2 3d 32 5b 5e be 9b 4c 22 3d
       -0.21071872 0.10267448 -0.21714476 0.039623838
0000a0 38 7f c0 3d 6c b5 02 3e de 6c 8f 3c 98 bc 46 3c
       0.09399265 0.1276452 0.017507967 0.012129925
0000b0 d1 b4 cc bd ec 59 51 3c 92 ef 99 bd ab e8 95 3c
       -0.099954255 0.012777787 -0.075163975 0.018299421
0000c0 23 f0 4d be 97 28 91 bd cb 83 9d 3d b6 63 7f 3d
       -0.20111136 -0.0708782 0.07691153 0.06235095
0000d0 97 6b f1 bd ad 03 0e 3e b7 74 62 be 97 7d 3b 3d
       -0.11788099 0.1386859 -0.22114836 0.04577407
0000e0 a5 3f 55 bd e5 11 b8 bb 49 3f 98 3d 10 10 24 be
       -0.05206265 -0.0056173676 0.07433946 -0.16021752
0000f0 fa b7 35 be 7c fd ab 3d 9a 37 81 3a 79 50 8e 3c
       -0.17745963 0.08397958 0.000985849 0.017372357

fc.1.weight f4 [128, 64]
000000 f9 49 1a 3d 75 3c fb bc 14 65 75 3e 0d 71 b0 be
       0.037668202 -0.030668477 0.2396434 -0.3446125
000010 f1 15 8f bc 0b bb 1c be cf d0 a8 be 03 88 29 be
       -0.017466517 -0.15305726 -0.32971808 -0.1655579
000020 0a 7e 50 3e 6d e0 0c 3e d7 0a 11 be 33 17 19 3c
       0.2036058 0.13757487 -0.14164291 0.00934391
000030 03 53 e3 bd 1b 2d 2e be 03 1e 62 be d1 8b f4 bd
       -0.110998176 -0.17009394 -0.22081761 -0.1194073
000040 5f 8f 3e 3e 07 e5 8f bc 09 66 89 3e be 4d fa 3d
       0.18609379 -0.017565263 0.2683566 0.122218594
000050 3b 00 dd be e0 f6 43 bd 3d ce aa 3d 88 1c 5f 3d
       -0.43164238 -0.04784286 0.08340118 0.05447057
000060 da 40 3d 3e f1 1b df 3d b9 eb 9f 3d dd 46 30 bd
       0.1848177 0.10894001 0.078086324 -0.04303633
000070 ce da a9 bd 62 9b 79 3d 41 30 e1 bd 00 d2 11 3d
       -0.08293687 0.0609392 -0.10995532 0.035600662
000080 ee f6 16 3e da fd 3c 3d 73 6b 33 be 4d d6 a0 3d
       0.14742634 0.04614053 -0.17521457 0.07853375
000090 6a 73 69 bd b5 2f d4 bd 59 9d 2e 3d 7a 3c 87 bd
       -0.056994833 -0.10360662 0.042630527 -0.06603332
0000a0 c2 4f 70 3e 72 bb 4a 3e 9e 23 b7 be 4b 06 a2 3d
       0.23467925 0.19798067 -0.3576936 0.079113565
0000b0 90 56 f4 bc e3 c3 94 bc e6 e1 1a 3e f5 47 ce 3d
       -0.029826432 -0.018159812 0.15125236 0.100723185
0000c0 b4 03 14 be ff ae 64 3e 83 b4 ac bd 44 57 8f 3e
       -0.14454538 0.2233238 -0.084328674 0.27996266
0000d0 c6 57 f5 bd 08 fc 8b be bb 00 ac 3d 57 df 01 3e
       -0.11979632 -0.27340722 0.08398577 0.12682854
0000e0 1c 50 b3 3d 3e 71 03 bc 4a 8d c5 be c2 b9 c8 be
       0.08755514 -0.0080226045 -0.38584358 -0.39204222
0000f0 fe a7 e9 3b 67 1a 79 3e bb db 07 3f 20 ba 5b 3e
       0.007130622 0.24326478 0.5306966 0.2145772
000100 bd 6e a8 bf f3 d7 0e 3d 3e 68 d4 3b ea cd a7 bb
       -1.3158795 0.034873914 0.006482153 -0.0051209824
000110 fe 38 de 3b 94 ad e7 bc 8f aa 69 3c 89 72 b3 3e
       0.0067816963 -0.02828101 0.014261856 0.3504832
000120 26 0d d4 3a c9 0d f6 3d 5d 18 81 3e 6f 1e d9 bc
       0.0016178235 0.12014348 0.252139 -0.02650377
000130 ca 4c 98 3d 9a 9a a2 3c 5e 3b 23 bf 41 f3 38 3e
       0.07436521 0.01984911 -0.6376246 0.18061544
000140 3a 07 99 bd 1a 00 cf be d0 0e b5 3c 9d 05 b0 be
       -0.074720815 -0.40429765 0.02210179 -0.34379283
000150 dd b0 4d 3d f3 0d d9 3c 67 a1 77 3d 0a b8 ec bd
       0.050217498 0.02649591 0.06045666 -0.1155854
000160 83 c4 38 bd 1a e7 c9 be a0 d5 73 3e 60 e7 e2 3c
       -0.045109283 -0.3943413 0.2381196 0.027698219
000170 dc 20 a6 be 4e ec 12 bd c8 51 cd 3d 07 3c 29 3e
       -0.32446945 -0.03586989 0.10025364 0.16526805
000180 30 48 a3 3c 5d 47 80 be 61 a7 59 bf 4f 5a 74 3e
       0.019931883 -0.25054446 -0.85021025 0.23862575
000190 0f 63 98 be f9 d7 4e 3e 54 70 b2 bd 1f 0e b0 bd
       -0.29763076 0.20199575 -0.08712831 -0.085964434
0001a0 19 8f c5 be 66 06 6c bd 9b 5b 0b bd 44 b9 8f be
       -0.38585737 -0.05762329 -0.03402291 -0.28071034
0001b0 49 0b 4c be dc 5d e8 3d 79 78 07 3d 0c db 34 3e
       -0.1992618 0.11346027 0.033073876 0.17661685
0001c0 b2 a9 ba be 01 7f 1e 3d 06 51 d5 3d a7 6d 22 be
       -0.36457592 0.03869534 0.104158446 -0.15862142
0001d0 0f bb 23 3d 03 6a bb be 45 2d f0 bd 80 f4 05 bf
       0.039973315 -0.36604318 -0.117273845 -0.523262
0001e0 5b 8e 40 bc 2a d3 95 3e 22 a6 af 3d 51 73 4d bd
       -0.01175269 0.29262668 0.08576609 -0.050158802
0001f0 0c db f1 3c 10 26 55 bd 78 e1 49 be 27 4c cd 3d
       0.029523395 -0.052038252 -0.19714916 0.100242905
000200 9c 2c f1 be dd 15 a3 3e 9b f5 7f 3d 57 95 1b 3e
       -0.47104347 0.31852618 0.062490087 0.15193687
000210 e4 6d 8d be cc 89 a0 3e 02 c5 26 be 0f c0 8b be
       -0.27622902 0.3135513 -0.1628609 -0.27294967
000220 81 3b 14 be 96 6f 99 3d 9d c9 c9 bd 44 67 13 be
       -0.14475824 0.074919865 -0.09852908 -0.14394861
000230 96 e6 b6 3c 98 af 44 3e 2f 11 bc be 48 56 77 3e
       0.022326749 0.19207609 -0.3673186 0.24154007
000240 c8 28 8d 3e a8 a5 0a 3e cc 9b df be 69 d6 1d 3d
       0.27570176 0.13539755 -0.4367355 0.038534556
000250 09 0c b6 be 9d 64 34 bd 5e de 65 3e 51 b0 44 3e
       -0.35556057 -0.044041265 0.22448108 0.19207884
000260 3c c4 2c be 4e 57 19 3e 17 d6 9c 3d ca 97 bb 3d
       -0.16871732 0.1497471 0.07658022 0.09159811
000270 b7 32 36 bd e8 ec d9 be c4 9f 3f 3d 9e e4 3f be
       -0.04448196 -0.42563558 0.046783224 -0.18739554
000280 e9 eb 03 be e0 a6 9c bc d7 f0 d7 3d 72 93 ca bd
       -0.12882961 -0.019122541 0.105439834 -0.09891404
000290 56 8c ca be 89 22 5f bd 04 90 82 3e 71 cd 96 3e
       -0.39560193 -0.054476295 0.255005 0.29453614
0002a0 6b 1d 90 3e 53 65 54 3e 8f 25 42 bd 80 f9 2e 3c
       0.28147444 0.20741777 -0.0473991 0.010679603
0002b0 6a 5a 97 be 8a 16 42 3d 31 ec e1 bd e5 c4 f9 3c
       -0.29561168 0.047384776 -0.11031378 0.030489394
0002c0 72 2c 36 3e 68 08 42 bf 8b a4 64 be 5b 2c c8 3e
       0.17790392 -0.75794077 -0.22328393 0.3909634
0002d0 bc 54 38 bf 76 c2 4c 3e ee 76 99 be a7 6a d6 be
       -0.72004294 0.19996056 -0.2997355 -0.41878244
0002e0 62 0a 1f be 8f af 94 bc 42 a1 9e 3b 5e 8e 22 bf
       -0.15531304 -0.01815012 0.004841001 -0.63498485
0002f0 da 49 39 be 49 a1 26 bf 48 39 98 be e0 bb ff be
       -0.18094578 -0.6508985 -0.29731202 -0.49948025
000300 83 83 3d 3e 3a 01 00 bd 13 69 b2 3e 14 d4 dd bd
       0.18507199 -0.03125117 0.3484579 -0.10831466
000310 b6 d6 81 bd e7 83 04 3e 8e aa 79 3e 40 5b 0e be
       -0.06339781 0.12940942 0.24381468 -0.13901997
000320 cb d1 7e bd d8 8e 07 be f0 27 cb 3d 87 76 5d be
       -0.062211793 -0.13238084 0.09919727 -0.21627246
000330 83 0c 47 3e ff 62 37 be b4 65 27 bf b9 c2 fc 3d
       0.19438367 -0.17908858 -0.6538956 0.12341828
000340 40 90 1e 3c 44 ca ba be 21 19 1c be 8f b1 8c be
       0.009677947 -0.3648244 -0.15243961 -0.27479216
000350 da 25 5e bd a2 8d 1f be 8c 5e 1f 3f 76 a0 df bc
       -0.054235317 -0.15581372 0.6225364 -0.027298193
000360 f2 e5 9b bd 14 e4 40 3e 37 66 81 3d 2c 70 46 bd
       -0.07612218 0.18837005 0.06318324 -0.04844682
000370 7c 4c 41 3c 8e 82 bd bd 4c 2b 16 3e f6 19 fb bc
       0.01179802 -0.09253417 0.14664954 -0.030652028
000380 57 48 f6 bd 02 ce 42 be e0 04 c0 3e 65 43 9b be
       -0.120255165 -0.19023898 0.3750372 -0.30324855
000390 43 6b ee bd c0 00 05 3e 19 1a 81 be e2 70 b8 3c
       -0.11641552 0.12988567 -0.25215223 0.022514764
0003a0 f4 90 1e 3e 68 30 60 be 7d 98 02 bd 4c 94 e3 3d
       0.15484983 -0.21893466 -0.031883705 0.1111227
0003b0 7b 7b d3 bd 37 82 c7 3d 1c 00 1f be cd 0d 82 3d
       -0.103262864 0.097416334 -0.15527385 0.063502885
0003c0 a0 34 71 3d f7 2d 41 3e ae 23 cc bc c4 fa b8 bd
       0.058888078 0.1886519 -0.024919357 -0.09032205
0003d0 2a eb 0b 3e 62 18 44 be 45 1d 35 bd 87 f6 3a 3e
       0.13663927 -0.19149926 -0.044217367 0.18258105
0003e0 1a 92 c8 3d 21 aa f5 3b a8 71 10 be cb 2e 90 3d
       0.09793492 0.0074970876 -0.14105856 0.07040175
0003f0 77 1c d2 bd 07 8f e2 bd 3f 65 a5 bd 0e 64 cb 3d
       -0.102593355 -0.110624366 -0.08075952 0.09931193

fc.1.bias f4 [128]
000000 0b 30 13 3e 66 c1 ad be 0e 72 08 be 56 53 15 bd
       0.14373796 -0.33936614 -0.13324758 -0.03645643
000010 be 1e c5 bd cb ac b0 bc 34 83 16 be 81 09 42 bd
       -0.09625004 -0.02156677 -0.14698488 -0.047372345
000020 ea ce 32 3f ea 90 83 bd a0 31 a9 bd a0 ed 5e 3e
       0.69846976 -0.064241245 -0.08261418 0.21770334
000030 0c 7e 36 3e 2c a9 28 be e0 45 6e be 18 ae 14 be
       0.1782152 -0.16470784 -0.23268843 -0.14519536
000040 75 b8 f3 ba 17 5f b0 3c 83 c2 7d be da 77 9b bd
       -0.0018594401 0.021529717 -0.24781232 -0.07591219
000050 b2 48 50 be 1f ed 16 be d8 48 14 be 25 89 1b 3e
       -0.20340231 -0.14738892 -0.14480913 0.15189035
000060 98 01 8b 3c ed 0e 37 bd 66 38 9a 3d cf 4e b4 bd
       0.016968533 -0.04469197 0.075302884 -0.08804094
000070 1c 3a c9 be 37 bb 2e bd 60 3c b4 3d ef 86 1e 3e
       -0.39302146 -0.04265901 0.08800578 0.1548116
000080 fb 36 b1 bd 8f 34 8a be 32 5b 38 be f0 e1 a4 be
       -0.08653065 -0.26993224 -0.18003538 -0.32203627
000090 77 e0 d8 3e 95 a1 8d 3e 21 4a 42 3e db 10 f4 bd
       0.42358753 0.2766234 0.1897359 -0.119172774
0000a0 50 fb 3f be d1 88 4b be 6a 11 c7 3a c6 5d a3 be
       -0.18748212 -0.1987641 0.0015187685 -0.3190748
0000b0 25 c9 7d be 84 74 df bd 89 84 44 bd 61 db 5f bd
       -0.24783762 -0.109108955 -0.047977958 -0.054652575
0000c0 f3 ea 6c bc 34 48 05 be 25 98 db bd ef 9e 40 3d
       -0.014460313 -0.13015825 -0.10722379 0.04702657
0000d0 b1 23 ab bc 07 52 80 bd 32 a8 10 3f 84 55 49 be
       -0.020891042 -0.062656455 0.56506646 -0.19661528
0000e0 c8 7d a4 bc 9c 95 ea 3d 3d b4 c7 3d 50 7a b2 bd
       -0.020079508 0.11454317 0.097511746 -0.087147355
0000f0 57 95 98 bd 30 bb 17 bd 9c 6b 0e 3d c0 9b 8a be
       -0.07450359 -0.03704375 0.034770593 -0.27071953
000100 ab dd 2b be 74 e7 03 be ac f6 00 3e c3 20 a4 3e
       -0.16783778 -0.12881261 0.12594098 0.32056245
000110 50 65 f9 3c 8a 2a 6a be 00 1b 5b be 84 6f d5 be
       0.030443817 -0.2286779 -0.21397018 -0.41686642
000120 b2 0a 83 bd f1 2a 0c 3f 07 b8 08 be a3 c8 20 3e
       -0.06398524 0.54753023 -0.13351451 0.15701537
000130 49 9b 34 3e f4 d6 49 be 00 08 b3 be d3 a5 e6 bc
       0.17637362 -0.19710904 -0.3496704 -0.028155243
000140 bc cc 38 3d fa a4 b4 bd 82 bc 83 3b c1 d7 af 3e
       0.045117125 -0.08820529 0.0040202746 0.34344295
000150 de 05 11 3e 73 91 00 3e 17 1e a5 3e 92 cb 25 3d
       0.14162394 0.12555484 0.3224952 0.040477343
000160 54 7d f7 3c 88 ce 43 bd 0c 40 95 3d 0a c3 c2 3d
       0.030211128 -0.047804385 0.072876066 0.09509857
000170 dc 96 96 be 3a 5e a9 3e f5 9b c1 3b ae f3 fa bd
       -0.29411972 0.33079702 0.005908484 -0.122535095
000180 91 69 30 be 85 1b 08 3d 9c fd 1a 3d 10 68 2c be
       -0.1722777 0.03322937 0.037839517 -0.16836572
000190 f1 30 05 be b3 5d 05 3e 0c 7c 03 3f fe fc 43 3f
       -0.13006951 0.13024025 0.51361156 0.7655791
0001a0 2d 3d 74 3e 1d 86 0c 3f d2 1e 76 3e 33 6e f8 3b
       0.23851462 0.5489214 0.24035195 0.007581496
0001b0 49 97 85 be f0 50 e6 bd 91 c5 42 3f b5 d9 22 3c
       -0.26091984 -0.11245906 0.7608271 0.009939601
0001c0 65 0e 77 3d 50 29 16 bd 3a da 85 be 39 cf 96 3e
       0.060316462 -0.036660492 -0.26143056 0.29454973
0001d0 f5 b2 55 3d 2a 9f 97 be a1 1d f2 bd 55 31 26 3e
       0.05217262 -0.2961362 -0.118220575 0.16229756
0001e0 d2 87 25 be 6e a1 67 be e1 a1 1e 3e ca 57 34 be
       -0.16165093 -0.22620174 0.1549144 -0.17611614
0001f0 67 86 4a 3f 97 50 9d 3e 7c 88 a1 be d4 23 99 bd
       0.7911133 0.30725548 -0.31549442 -0.07477537

v.weight f4 [1, 128]
000000 f9 46 b8 3d 87 ee 02 be d5 07 72 be 44 a1 31 3e
       0.08997912 -0.12786303 -0.236358 0.17346674
000010 99 f2 7f be 31 14 f7 be 3d 1b c9 be a5 2a 2b 3e
       -0.24994887 -0.48257592 -0.39278594 0.16715486
000020 10 3c ac 3e a3 31 2c be 52 23 b6 bd a8 50 34 3e
       0.33639574 -0.1681581 -0.088934556 0.17608893
000030 34 d7 3b 3e ab 32 a7 be 0c 69 24 be ef 4b 81 3e
       0.18343812 -0.32655844 -0.16055697 0.25253245
000040 70 48 3a be a6 bc 0c 3e f8 7a c7 be da e3 5a 3e
       -0.18191695 0.13743839 -0.38961005 0.21375981
000050 89 9d e7 bd 22 39 bd be cf 3f bb 3e d9 42 1d 3d
       -0.11309344 -0.3695765 0.3657212 0.03839383
000060 47 a9 bc 3d 3b 78 be bd e1 65 e5 3d 51 db 5f be
       0.092119746 -0.09300276 0.112010725 -0.21861006
000070 03 73 b3 be 40 6e 38 bf ce ed 89 3e 44 af 50 3c
       -0.35048684 -0.7204323 0.26939243 0.012737099
000080 d7 81 7c be e2 26 89 be ff f2 10 be 16 0f cf be
       -0.24658905 -0.26787478 -0.14155196 -0.40441197
000090 30 58 24 3e 9e 5c 04 3e dd 99 49 3d ba 88 1f 3d
       0.16049266 0.12925956 0.049219 0.038948752
0000a0 45 ae 2d 3e aa 06 99 be bc 07 35 bf 45 6b 91 be
       0.1696101 -0.29887897 -0.70714927 -0.28402153
0000b0 a1 27 2b be 78 10 d4 bd a7 a1 78 3d 9a 2c 1b bf
       -0.16714336 -0.10354704 0.06070104 -0.6061493
0000c0 72 96 dc bc 34 6c 19 bd a9 48 ac be 1d 3f 92 be
       -0.026927207 -0.037456706 -0.33649185 -0.28563777
0000d0 7d 75 fe 3e f7 b8 32 3d 35 a5 91 3e 94 49 74 be
       0.4969901 0.043633427 0.28446355 -0.23856193
0000e0 6b 4d dd be 3b 0f db 3d c4 bd 20 bf 2c 21 27 3e
       -0.43223128 0.10696264 -0.6278956 0.16321248
0000f0 bc d1 84 3d fa a9 4b be c6 6b df bd 2e e0 f1 be
       0.06485316 -0.1988906 -0.10909228 -0.47241348
000100 cb 52 2b 3e 0c 39 bd 3e dd 25 8c 3e 8d e1 ee 3d
       0.16730802 0.36957586 0.27372637 0.11664114
000110 a5 d5 20 3e 52 a8 01 bf 7f 27 9b be 14 90 01 bf
       0.15706499 -0.5064746 -0.3030357 -0.5061047
000120 54 60 3e be 73 d6 5d 3e d6 8e d2 be aa 26 a4 3d
       -0.18591434 0.21663837 -0.411246 0.08015187
000130 ad da 17 bf bf 4c 6d be 87 f4 1e be c3 9c ee be
       -0.5931805 -0.23173808 -0.15522967 -0.46603975
000140 42 66 0d bf 20 30 07 3e 93 91 05 bf e6 18 11 3e
       -0.5523416 0.13201952 -0.52175254 0.14169654
000150 5a b3 13 3e dc 84 6a 3e 9f 13 fc 3d 65 90 87 3d
       0.14423886 0.22902244 0.1230843 0.06619338
000160 b0 90 b1 be de d4 53 bd eb 77 73 bd 3f bb 1a 3d
       -0.346807 -0.051716678 -0.059440535 0.037776228
000170 6d 10 c7 be 2c c7 27 3e 06 5c cf bb ff 97 0c bd
       -0.3887972 0.16384572 -0.0063281087 -0.034324642
000180 8a ae 21 be 17 b2 ee bc 38 f2 d2 3d 0a 09 0e be
       -0.15789238 -0.029137654 0.10300106 -0.13870636
000190 fc c0 ac be 5d 7a e7 3e 1e 61 4c 3e b3 1a b3 3e
       -0.33740985 0.45210543 0.19958922 0.34981307
0001a0 e7 74 27 3e 99 ba 55 3e d8 ac 84 be 63 07 9d 3d
       0.16353188 0.20871963 -0.2591312 0.076674245
0001b0 13 dd 86 3e 6a a1 32 bf a0 bc b4 3e 6b 4e fd 3d
       0.2634054 -0.6977755 0.3530016 0.12368473
0001c0 de d8 53 be bd 8a 73 3e 55 02 e7 be 3e 42 ed 3d
       -0.20688197 0.23783393 -0.45118967 0.115849
0001d0 f9 dc a3 3e e8 c5 dc be aa 67 6c 3e 87 d6 53 3e
       0.32004526 -0.4311974 0.2308642 0.20687304
0001e0 1b e6 d7 be 92 8c ab bd 68 b1 48 3e 08 52 3b 3d
       -0.42167744 -0.08376421 0.19598925 0.045732528
0001f0 e7 3d b6 3e 70 7f 4f 3e dd c7 6d be 94 b9 d6 3d
       0.35594103 0.20263457 -0.23220773 0.10484615

a.weight f4 [4, 128]
000000 c1 d9 0b 3d c5 7b 9f 3c e0 50 b3 be 4a d3 db bd
       0.034143213 0.019468198 -0.3502264 -0.107336596
000010 22 a1 f7 be cd 99 e1 3d ea cd 79 be c4 c9 6f 3e
       -0.48365122 0.11015663 -0.24394956 0.23416811
000020 92 04 2a bd ca e3 d0 bd fc 4c e4 3c 47 63 01 3d
       -0.041508265 -0.10199697 0.02786874 0.03158882
000030 2a 49 06 3d 51 d4 94 be 6c 40 a6 bd ba be 64 be
       0.03278462 -0.29068235 -0.08117756 -0.22338381
000040 c6 ce 8c 3d 13 48 b3 bd 43 9c ec be c8 f6 14 be
       0.068753764 -0.087539814 -0.46212968 -0.14547265
000050 c7 62 c2 3b 2b 42 50 3e 57 49 5a be e0 87 71 3d
       0.0059321853 0.20337741 -0.2131704 0.05896747
000060 6a 32 39 bd 87 7d 2e be 91 82 4c bd 05 03 92 be
       -0.045214094 -0.17040072 -0.049929205 -0.2851793
000070 b4 3b d9 3d d8 1f 67 3f f1 ea 05 be 1d 5e 1e 3f
       0.106070906 0.90282965 -0.13077904 0.61862355
000080 1a 65 d6 3c 7c b5 85 be 64 8d f6 3b 0a ee 96 3e
       0.026171256 -0.26115024 0.0075241793 0.29478484
000090 ca f8 61 bd 44 95 4f bd ef bc ba 3d 8b 8a 74 3d
       -0.055168904 -0.05067946 0.091180675 0.059702437
0000a0 65 56 cf bc d8 b5 93 bd cf f2 08 3f 48 d8 5c 3e
       -0.02530975 -0.07212418 0.53495497 0.2156688
0000b0 ad 50 23 be 93 ef 1a bd 8a 6c e8 3d 43 52 3f 3e
       -0.15948744 -0.037826132 0.11348827 0.18683724
0000c0 ba da e2 3e 04 1b 22 3d 49 b6 b9 3e a0 77 fa 3e
       0.443075 0.039576545 0.36271885 0.48919392
0000d0 1d a8 d8 bd 5e 8f 5f bd e6 19 62 3d 49 b3 be bd
       -0.1057894 -0.054580085 0.05520048 -0.0931154
0000e0 61 e9 33 bf f9 ce 0f 3d 83 4a 5a 3f 32 21 e4 bd
       -0.7027798 0.035109494 0.85269946 -0.11139144
0000f0 af 0b 56 bd d4 26 8f 3e 09 66 c8 3d fa d9 88 3d
       -0.052257236 0.2795931 0.09785087 0.06682201
000100 84 d2 0b 3e a4 85 bc be 8a 4b 68 bf b5 3b e4 3d
       0.13654524 -0.3682071 -0.90740263 0.11144201
000110 4f 65 83 bc f4 d6 9d be 80 28 33 3d 10 fa d9 be
       -0.016039519 -0.3082806 0.043739796 -0.42573595
000120 4a 9a d6 be b1 3d 6a bc c1 b4 3c be 40 38 86 bd
       -0.41914588 -0.014296935 -0.18428327 -0.065536976
000130 e7 af 88 bf b1 15 7d 3e 8e 44 c2 bd b2 3a 1b 3f
       -1.0678681 0.24715306 -0.09485732 0.60636437
000140 8e 20 c7 bd e1 24 bd be c5 d4 02 3d c9 a3 88 bd
       -0.09723006 -0.369422 0.031941194 -0.066718645
000150 e4 68 c0 3d d5 d7 fe 3d 33 5b 4f be 6a 2b 87 3d
       0.09395006 0.124435104 -0.20249633 0.066000775
000160 79 ff d3 be eb a6 d6 3d 0b b4 1c 3e 4d 1c 7d 3d
       -0.41405848 0.10481056 0.15303056 0.061794568
000170 14 51 c1 3d 93 ea 96 bd 2d 50 c3 be ee 89 ac 3d
       0.094392926 -0.0736896 -0.38147107 0.084247455
000180 2b 36 1e 3e 75 10 86 3d 99 a0 ed 3d 7e 7e 7d bc
       0.15450351 0.06546108 0.11602897 -0.015472053
000190 01 09 59 3e 90 73 cf 3e d6 d7 e5 bc 19 c3 31 3b
       0.21194841 0.40517855 -0.02805702 0.0027124344
0001a0 14 be 21 bd 64 c3 cb bc 3b 36 bc 3e 33 fc b0 3e
       -0.039487913 -0.024873443 0.36760125 0.34567413
0001b0 68 b2 20 be cf d3 87 bd 01 b1 a3 bd 31 21 0c bd
       -0.15693057 -0.06632196 -0.07992745 -0.03421134
0001c0 39 8a b7 3e d0 50 b2 be c7 ee 45 bf af 02 be bc
       0.35847643 -0.3482728 -0.7731747 -0.023194639
0001d0 62 2d 9f be ee 7c f7 3d 65 6c 72 3e 57 01 ca 3d
       -0.31089312 0.12084375 0.23674162 0.09863537
0001e0 c3 f1 b6 bd db 51 20 bd 6d 71 b9 bd c8 1d 1c 3e
       -0.08932831 -0.039140563 -0.090548374 0.15245736
0001f0 c3 04 e0 3d 70 ed 50 be 4e 22 08 be be f2 35 b9
       0.10938408 -0.20403075 -0.13294336 -0.00017351934
000200 8d e1 0f 3e 75 a9 81 3d c4 be a4 3e d0 1a 5a bd
       0.14050885 0.063311495 0.32176793 -0.053248227
000210 3b 40 53 3e 3d 4d a7 3e df 52 29 3f 29 72 5c 3e
       0.2062997 0.32676116 0.66142076 0.21527924
000220 10 d8 31 3d fb 2f f1 bc 76 ff f4 3d 7f 1a d7 3d
       0.043418944 -0.029441824 0.11962788 0.105031006
000230 02 14 1a 3c 67 3a e1 3e 58 4b ef bc 2c 50 f3 bc
       0.009404184 0.4398987 -0.029210731 -0.029701315
000240 7a ae 28 be 25 b4 f7 3d c5 99 f1 3e a6 dd 09 3d
       -0.16472808 0.12094907 0.4718763 0.033658646
000250 94 4a 62 3e 12 95 6c 3d 25 d0 21 3d b2 d9 65 3e
       0.22098762 0.057759352 0.039505143 0.22446325
000260 45 26 9e bc cc 6f 4c 3e 90 dd 6d bb ad e0 1a 3e
       -0.019305358 0.19964522 -0.0036295392 0.1512477
000270 08 34 fb bc 9e 43 72 bd d4 9a ee b9 e8 12 8b be
       -0.030664459 -0.059146516 -0.00045510253 -0.27162862
000280 10 d5 27 3e 7f 62 fd 3e cd 25 de bd 6e 46 d7 3e
       0.1638987 0.4948921 -0.10847054 0.4204592
000290 c9 c1 85 3e 8b 3e 26 3e f7 e1 8e bd a9 77 04 3e
       0.2612441 0.16234796 -0.06976693 0.12936272
0002a0 84 dd 14 3e 04 45 4f 3e f0 1d c4 3e f8 9d 4a 3a
       0.14537627 0.20241171 0.3830409 0.00077292277
0002b0 16 7d cb 3e 0f 99 c2 3d 82 b0 89 3d 41 ea 12 3f
       0.3974387 0.0950185 0.06723119 0.57388693
0002c0 52 8f fb be e7 25 67 be fa 67 e1 3e 69 74 99 3c
       -0.49132782 -0.22573052 0.4402464 0.018732267
0002d0 f7 35 ad be 3f 32 9a 3d bc d0 a9 3c 31 f0 70 3e
       -0.33830234 0.07529115 0.020729415 0.23529126
0002e0 a8 4c e4 3e a7 96 7c 3d 22 be 41 3e 31 19 ea 3c
       0.44589734 0.06166711 0.18920186 0.028576465
0002f0 03 37 53 bd f9 3d c8 3e 1d 87 19 3e f8 45 c6 3e
       -0.051566135 0.3910978 0.14992948 0.38725257
000300 78 55 5b bd 4a a9 ae be 94 86 19 3d 11 72 07 be
       -0.053548306 -0.34113532 0.03748186 -0.13227107
000310 fe ef d5 bd 3c 67 af 3e fe 49 fe 3b ad 2e 08 3f
       -0.104461655 0.3425845 0.0077602854 0.5319622
000320 a3 ee 81 bd bb 2f 60 3c ca 60 cf 3e f0 a1 11 3c
       -0.063443445 0.013683255 0.40503532 0.008888707
000330 e1 88 6e 3f e4 20 ad 3e 1d 06 09 3e f0 e9 dd 3e
       0.9317761 0.33814156 0.13381238 0.43342543
000340 0a f8 d0 3e fe 3f 0a 3e d7 e9 20 3f 12 8a af 3d
       0.4081424 0.13500974 0.6285681 0.08571257
000350 d0 84 76 bd fd e2 ef bc 29 29 0b 3e a6 d6 30 3e
       -0.060185254 -0.029283041 0.1358992 0.17269382
000360 b7 39 76 3e c8 51 31 bb a6 4f 7e 3e 3a 4f dc 3d
       0.24045454 -0.0027056802 0.24835071 0.10757299
000370 ab e3 94 3d 28 7f 5a 3d 9f d6 dc 3c 18 2e 2c 3e
       0.07269987 0.053343922 0.026957808 0.16814458
000380 e8 cb fd 3e 32 7c fc 3d 3c 16 83 3d 02 44 87 3e
       0.4956963 0.12328376 0.06400725 0.26419073
000390 c8 5a 30 bd a0 e4 13 be e2 7d aa 3d cd 82 a7 bd
       -0.043055326 -0.14442682 0.083247915 -0.08179245
0003a0 12 4e d1 bd 12 90 c0 3d af dd 11 3f db 40 b7 bd
       -0.10219969 0.09402479 0.5697889 -0.08947917
0003b0 84 d9 54 be 87 f9 62 3f 01 f3 d9 3a 7c 8f 5b 3d
       -0.207861 0.88662 0.0016628207 0.053603634
0003c0 01 39 d0 3e 5e 66 d2 3d 6d 19 a5 3e 95 28 84 3d
       0.4066849 0.10273431 0.3224596 0.06453053
0003d0 f1 ca 3b be ef cc ca 3e 8a 5d 07 be 5c 26 8c 3c
       -0.18339135 0.39609477 -0.13219276 0.017108135
0003e0 a3 a6 0a 3e fd b8 a1 3d 63 9f 6d 3e cb de 38 3d
       0.1354013 0.07896612 0.23205332 0.045134347
0003f0 84 62 3f bc 8a 11 38 3e d2 fd dd bc 8d 62 02 be
       -0.011681203 0.1797544 -0.02709857 -0.12732907

a.bias f4 [4]
000000 e2 db 91 3e 8c a7 bf be 46 52 f3 bd 99 e2 f0 bd
       0.2848807 -0.37432516 -0.11880927 -0.1176197
